…
2024-04-25 20:50:10,145 INFO: Number of val images/folders in FFHQ_val: 400
/home/msai/bugn0001/.conda/envs/acv-swinfir/lib/python3.10/site-packages/torch/functional.py:504: UserWarning: torch.meshgrid: in an upcoming release, it will be required to pass the indexing argument. (Triggered internally at /opt/conda/conda-bld/pytorch_1702400366987/work/aten/src/ATen/native/TensorShape.cpp:3526.)
  return _VF.meshgrid(tensors, **kwargs)  # type: ignore[attr-defined]
2024-04-25 20:50:10,334 INFO: Network [SwinFIR] is created.
2024-04-25 20:50:10,567 INFO: Network: SwinFIR, with parameters: 1,186,464
2024-04-25 20:50:10,567 INFO: SwinFIR(
  (conv_first): Conv2d(3, 64, kernel_size=(3, 3), stride=(1, 1), padding=(1, 1))
  (patch_embed): PatchEmbed(
    (norm): LayerNorm((64,), eps=1e-05, elementwise_affine=True)
  )
  (patch_unembed): PatchUnEmbed()
  (pos_drop): Dropout(p=0.0, inplace=False)
  (layers): ModuleList(
    (0): RSTB(
      (residual_group): BasicLayer(
        dim=64, input_resolution=(64, 64), depth=6
        (blocks): ModuleList(
          (0): SwinTransformerBlock(
            dim=64, input_resolution=(64, 64), num_heads=8, window_size=16, shift_size=0, mlp_ratio=2
            (norm1): LayerNorm((64,), eps=1e-05, elementwise_affine=True)
            (attn): WindowAttention(
              dim=64, window_size=(16, 16), num_heads=8
              (qkv): Linear(in_features=64, out_features=192, bias=True)
              (attn_drop): Dropout(p=0.0, inplace=False)
              (proj): Linear(in_features=64, out_features=64, bias=True)
              (proj_drop): Dropout(p=0.0, inplace=False)
              (softmax): Softmax(dim=-1)
            )
            (drop_path): Identity()
            (norm2): LayerNorm((64,), eps=1e-05, elementwise_affine=True)
            (mlp): Mlp(
              (fc1): Linear(in_features=64, out_features=128, bias=True)
              (act): GELU(approximate='none')
              (fc2): Linear(in_features=128, out_features=64, bias=True)
              (drop): Dropout(p=0.0, inplace=False)
            )
          )
          (1): SwinTransformerBlock(
            dim=64, input_resolution=(64, 64), num_heads=8, window_size=16, shift_size=8, mlp_ratio=2
            (norm1): LayerNorm((64,), eps=1e-05, elementwise_affine=True)
            (attn): WindowAttention(
              dim=64, window_size=(16, 16), num_heads=8
              (qkv): Linear(in_features=64, out_features=192, bias=True)
              (attn_drop): Dropout(p=0.0, inplace=False)
              (proj): Linear(in_features=64, out_features=64, bias=True)
              (proj_drop): Dropout(p=0.0, inplace=False)
              (softmax): Softmax(dim=-1)
            )
            (drop_path): DropPath()
            (norm2): LayerNorm((64,), eps=1e-05, elementwise_affine=True)
            (mlp): Mlp(
              (fc1): Linear(in_features=64, out_features=128, bias=True)
              (act): GELU(approximate='none')
              (fc2): Linear(in_features=128, out_features=64, bias=True)
              (drop): Dropout(p=0.0, inplace=False)
            )
          )
          (2): SwinTransformerBlock(
            dim=64, input_resolution=(64, 64), num_heads=8, window_size=16, shift_size=0, mlp_ratio=2
            (norm1): LayerNorm((64,), eps=1e-05, elementwise_affine=True)
            (attn): WindowAttention(
              dim=64, window_size=(16, 16), num_heads=8
              (qkv): Linear(in_features=64, out_features=192, bias=True)
              (attn_drop): Dropout(p=0.0, inplace=False)
              (proj): Linear(in_features=64, out_features=64, bias=True)
              (proj_drop): Dropout(p=0.0, inplace=False)
              (softmax): Softmax(dim=-1)
            )
            (drop_path): DropPath()
            (norm2): LayerNorm((64,), eps=1e-05, elementwise_affine=True)
            (mlp): Mlp(
              (fc1): Linear(in_features=64, out_features=128, bias=True)
              (act): GELU(approximate='none')
              (fc2): Linear(in_features=128, out_features=64, bias=True)
              (drop): Dropout(p=0.0, inplace=False)
            )
          )
          (3): SwinTransformerBlock(
            dim=64, input_resolution=(64, 64), num_heads=8, window_size=16, shift_size=8, mlp_ratio=2
            (norm1): LayerNorm((64,), eps=1e-05, elementwise_affine=True)
            (attn): WindowAttention(
              dim=64, window_size=(16, 16), num_heads=8
              (qkv): Linear(in_features=64, out_features=192, bias=True)
              (attn_drop): Dropout(p=0.0, inplace=False)
              (proj): Linear(in_features=64, out_features=64, bias=True)
              (proj_drop): Dropout(p=0.0, inplace=False)
              (softmax): Softmax(dim=-1)
            )
            (drop_path): DropPath()
            (norm2): LayerNorm((64,), eps=1e-05, elementwise_affine=True)
            (mlp): Mlp(
              (fc1): Linear(in_features=64, out_features=128, bias=True)
              (act): GELU(approximate='none')
              (fc2): Linear(in_features=128, out_features=64, bias=True)
              (drop): Dropout(p=0.0, inplace=False)
            )
          )
          (4): SwinTransformerBlock(
            dim=64, input_resolution=(64, 64), num_heads=8, window_size=16, shift_size=0, mlp_ratio=2
            (norm1): LayerNorm((64,), eps=1e-05, elementwise_affine=True)
            (attn): WindowAttention(
              dim=64, window_size=(16, 16), num_heads=8
              (qkv): Linear(in_features=64, out_features=192, bias=True)
              (attn_drop): Dropout(p=0.0, inplace=False)
              (proj): Linear(in_features=64, out_features=64, bias=True)
              (proj_drop): Dropout(p=0.0, inplace=False)
              (softmax): Softmax(dim=-1)
            )
            (drop_path): DropPath()
            (norm2): LayerNorm((64,), eps=1e-05, elementwise_affine=True)
            (mlp): Mlp(
              (fc1): Linear(in_features=64, out_features=128, bias=True)
              (act): GELU(approximate='none')
              (fc2): Linear(in_features=128, out_features=64, bias=True)
              (drop): Dropout(p=0.0, inplace=False)
            )
          )
          (5): SwinTransformerBlock(
            dim=64, input_resolution=(64, 64), num_heads=8, window_size=16, shift_size=8, mlp_ratio=2
            (norm1): LayerNorm((64,), eps=1e-05, elementwise_affine=True)
            (attn): WindowAttention(
              dim=64, window_size=(16, 16), num_heads=8
              (qkv): Linear(in_features=64, out_features=192, bias=True)
              (attn_drop): Dropout(p=0.0, inplace=False)
              (proj): Linear(in_features=64, out_features=64, bias=True)
              (proj_drop): Dropout(p=0.0, inplace=False)
              (softmax): Softmax(dim=-1)
            )
            (drop_path): DropPath()
            (norm2): LayerNorm((64,), eps=1e-05, elementwise_affine=True)
            (mlp): Mlp(
              (fc1): Linear(in_features=64, out_features=128, bias=True)
              (act): GELU(approximate='none')
              (fc2): Linear(in_features=128, out_features=64, bias=True)
              (drop): Dropout(p=0.0, inplace=False)
            )
          )
        )
      )
      (conv): SFB(
        (S): ResB(
          (body): Sequential(
            (0): Conv2d(64, 32, kernel_size=(3, 3), stride=(1, 1), padding=(1, 1))
            (1): LeakyReLU(negative_slope=0.2, inplace=True)
            (2): Conv2d(32, 64, kernel_size=(3, 3), stride=(1, 1), padding=(1, 1))
          )
        )
        (F): SpectralTransform(
          (conv1): Sequential(
            (0): Conv2d(64, 32, kernel_size=(1, 1), stride=(1, 1))
            (1): LeakyReLU(negative_slope=0.2, inplace=True)
          )
          (fu): FourierUnit(
            (conv_layer): Conv2d(64, 64, kernel_size=(1, 1), stride=(1, 1))
            (relu): LeakyReLU(negative_slope=0.2, inplace=True)
          )
          (conv2): Conv2d(32, 64, kernel_size=(1, 1), stride=(1, 1))
        )
        (fusion): Conv2d(128, 64, kernel_size=(1, 1), stride=(1, 1))
      )
      (patch_embed): PatchEmbed()
      (patch_unembed): PatchUnEmbed()
    )
    (1-2): 2 x RSTB(
      (residual_group): BasicLayer(
        dim=64, input_resolution=(64, 64), depth=5
        (blocks): ModuleList(
          (0): SwinTransformerBlock(
            dim=64, input_resolution=(64, 64), num_heads=8, window_size=16, shift_size=0, mlp_ratio=2
            (norm1): LayerNorm((64,), eps=1e-05, elementwise_affine=True)
            (attn): WindowAttention(
              dim=64, window_size=(16, 16), num_heads=8
              (qkv): Linear(in_features=64, out_features=192, bias=True)
              (attn_drop): Dropout(p=0.0, inplace=False)
              (proj): Linear(in_features=64, out_features=64, bias=True)
              (proj_drop): Dropout(p=0.0, inplace=False)
              (softmax): Softmax(dim=-1)
            )
            (drop_path): DropPath()
            (norm2): LayerNorm((64,), eps=1e-05, elementwise_affine=True)
            (mlp): Mlp(
              (fc1): Linear(in_features=64, out_features=128, bias=True)
              (act): GELU(approximate='none')
              (fc2): Linear(in_features=128, out_features=64, bias=True)
              (drop): Dropout(p=0.0, inplace=False)
            )
          )
          (1): SwinTransformerBlock(
            dim=64, input_resolution=(64, 64), num_heads=8, window_size=16, shift_size=8, mlp_ratio=2
            (norm1): LayerNorm((64,), eps=1e-05, elementwise_affine=True)
            (attn): WindowAttention(
              dim=64, window_size=(16, 16), num_heads=8
              (qkv): Linear(in_features=64, out_features=192, bias=True)
              (attn_drop): Dropout(p=0.0, inplace=False)
              (proj): Linear(in_features=64, out_features=64, bias=True)
              (proj_drop): Dropout(p=0.0, inplace=False)
              (softmax): Softmax(dim=-1)
            )
            (drop_path): DropPath()
            (norm2): LayerNorm((64,), eps=1e-05, elementwise_affine=True)
            (mlp): Mlp(
              (fc1): Linear(in_features=64, out_features=128, bias=True)
              (act): GELU(approximate='none')
              (fc2): Linear(in_features=128, out_features=64, bias=True)
              (drop): Dropout(p=0.0, inplace=False)
            )
          )
          (2): SwinTransformerBlock(
            dim=64, input_resolution=(64, 64), num_heads=8, window_size=16, shift_size=0, mlp_ratio=2
            (norm1): LayerNorm((64,), eps=1e-05, elementwise_affine=True)
            (attn): WindowAttention(
              dim=64, window_size=(16, 16), num_heads=8
              (qkv): Linear(in_features=64, out_features=192, bias=True)
              (attn_drop): Dropout(p=0.0, inplace=False)
              (proj): Linear(in_features=64, out_features=64, bias=True)
              (proj_drop): Dropout(p=0.0, inplace=False)
              (softmax): Softmax(dim=-1)
            )
            (drop_path): DropPath()
            (norm2): LayerNorm((64,), eps=1e-05, elementwise_affine=True)
            (mlp): Mlp(
              (fc1): Linear(in_features=64, out_features=128, bias=True)
              (act): GELU(approximate='none')
              (fc2): Linear(in_features=128, out_features=64, bias=True)
              (drop): Dropout(p=0.0, inplace=False)
            )
          )
          (3): SwinTransformerBlock(
            dim=64, input_resolution=(64, 64), num_heads=8, window_size=16, shift_size=8, mlp_ratio=2
            (norm1): LayerNorm((64,), eps=1e-05, elementwise_affine=True)
            (attn): WindowAttention(
              dim=64, window_size=(16, 16), num_heads=8
              (qkv): Linear(in_features=64, out_features=192, bias=True)
              (attn_drop): Dropout(p=0.0, inplace=False)
              (proj): Linear(in_features=64, out_features=64, bias=True)
              (proj_drop): Dropout(p=0.0, inplace=False)
              (softmax): Softmax(dim=-1)
            )
            (drop_path): DropPath()
            (norm2): LayerNorm((64,), eps=1e-05, elementwise_affine=True)
            (mlp): Mlp(
              (fc1): Linear(in_features=64, out_features=128, bias=True)
              (act): GELU(approximate='none')
              (fc2): Linear(in_features=128, out_features=64, bias=True)
              (drop): Dropout(p=0.0, inplace=False)
            )
          )
          (4): SwinTransformerBlock(
            dim=64, input_resolution=(64, 64), num_heads=8, window_size=16, shift_size=0, mlp_ratio=2
            (norm1): LayerNorm((64,), eps=1e-05, elementwise_affine=True)
            (attn): WindowAttention(
              dim=64, window_size=(16, 16), num_heads=8
              (qkv): Linear(in_features=64, out_features=192, bias=True)
              (attn_drop): Dropout(p=0.0, inplace=False)
              (proj): Linear(in_features=64, out_features=64, bias=True)
              (proj_drop): Dropout(p=0.0, inplace=False)
              (softmax): Softmax(dim=-1)
            )
            (drop_path): DropPath()
            (norm2): LayerNorm((64,), eps=1e-05, elementwise_affine=True)
            (mlp): Mlp(
              (fc1): Linear(in_features=64, out_features=128, bias=True)
              (act): GELU(approximate='none')
              (fc2): Linear(in_features=128, out_features=64, bias=True)
              (drop): Dropout(p=0.0, inplace=False)
            )
          )
        )
      )
      (conv): SFB(
        (S): ResB(
          (body): Sequential(
            (0): Conv2d(64, 32, kernel_size=(3, 3), stride=(1, 1), padding=(1, 1))
            (1): LeakyReLU(negative_slope=0.2, inplace=True)
            (2): Conv2d(32, 64, kernel_size=(3, 3), stride=(1, 1), padding=(1, 1))
          )
        )
        (F): SpectralTransform(
          (conv1): Sequential(
            (0): Conv2d(64, 32, kernel_size=(1, 1), stride=(1, 1))
            (1): LeakyReLU(negative_slope=0.2, inplace=True)
          )
          (fu): FourierUnit(
            (conv_layer): Conv2d(64, 64, kernel_size=(1, 1), stride=(1, 1))
            (relu): LeakyReLU(negative_slope=0.2, inplace=True)
          )
          (conv2): Conv2d(32, 64, kernel_size=(1, 1), stride=(1, 1))
        )
        (fusion): Conv2d(128, 64, kernel_size=(1, 1), stride=(1, 1))
      )
      (patch_embed): PatchEmbed()
      (patch_unembed): PatchUnEmbed()
    )
    (3): RSTB(
      (residual_group): BasicLayer(
        dim=64, input_resolution=(64, 64), depth=6
        (blocks): ModuleList(
          (0): SwinTransformerBlock(
            dim=64, input_resolution=(64, 64), num_heads=8, window_size=16, shift_size=0, mlp_ratio=2
            (norm1): LayerNorm((64,), eps=1e-05, elementwise_affine=True)
            (attn): WindowAttention(
              dim=64, window_size=(16, 16), num_heads=8
              (qkv): Linear(in_features=64, out_features=192, bias=True)
              (attn_drop): Dropout(p=0.0, inplace=False)
              (proj): Linear(in_features=64, out_features=64, bias=True)
              (proj_drop): Dropout(p=0.0, inplace=False)
              (softmax): Softmax(dim=-1)
            )
            (drop_path): DropPath()
            (norm2): LayerNorm((64,), eps=1e-05, elementwise_affine=True)
            (mlp): Mlp(
              (fc1): Linear(in_features=64, out_features=128, bias=True)
              (act): GELU(approximate='none')
              (fc2): Linear(in_features=128, out_features=64, bias=True)
              (drop): Dropout(p=0.0, inplace=False)
            )
          )
          (1): SwinTransformerBlock(
            dim=64, input_resolution=(64, 64), num_heads=8, window_size=16, shift_size=8, mlp_ratio=2
            (norm1): LayerNorm((64,), eps=1e-05, elementwise_affine=True)
            (attn): WindowAttention(
              dim=64, window_size=(16, 16), num_heads=8
              (qkv): Linear(in_features=64, out_features=192, bias=True)
              (attn_drop): Dropout(p=0.0, inplace=False)
              (proj): Linear(in_features=64, out_features=64, bias=True)
              (proj_drop): Dropout(p=0.0, inplace=False)
              (softmax): Softmax(dim=-1)
            )
            (drop_path): DropPath()
            (norm2): LayerNorm((64,), eps=1e-05, elementwise_affine=True)
            (mlp): Mlp(
              (fc1): Linear(in_features=64, out_features=128, bias=True)
              (act): GELU(approximate='none')
              (fc2): Linear(in_features=128, out_features=64, bias=True)
              (drop): Dropout(p=0.0, inplace=False)
            )
          )
          (2): SwinTransformerBlock(
            dim=64, input_resolution=(64, 64), num_heads=8, window_size=16, shift_size=0, mlp_ratio=2
            (norm1): LayerNorm((64,), eps=1e-05, elementwise_affine=True)
            (attn): WindowAttention(
              dim=64, window_size=(16, 16), num_heads=8
              (qkv): Linear(in_features=64, out_features=192, bias=True)
              (attn_drop): Dropout(p=0.0, inplace=False)
              (proj): Linear(in_features=64, out_features=64, bias=True)
              (proj_drop): Dropout(p=0.0, inplace=False)
              (softmax): Softmax(dim=-1)
            )
            (drop_path): DropPath()
            (norm2): LayerNorm((64,), eps=1e-05, elementwise_affine=True)
            (mlp): Mlp(
              (fc1): Linear(in_features=64, out_features=128, bias=True)
              (act): GELU(approximate='none')
              (fc2): Linear(in_features=128, out_features=64, bias=True)
              (drop): Dropout(p=0.0, inplace=False)
            )
          )
          (3): SwinTransformerBlock(
            dim=64, input_resolution=(64, 64), num_heads=8, window_size=16, shift_size=8, mlp_ratio=2
            (norm1): LayerNorm((64,), eps=1e-05, elementwise_affine=True)
            (attn): WindowAttention(
              dim=64, window_size=(16, 16), num_heads=8
              (qkv): Linear(in_features=64, out_features=192, bias=True)
              (attn_drop): Dropout(p=0.0, inplace=False)
              (proj): Linear(in_features=64, out_features=64, bias=True)
              (proj_drop): Dropout(p=0.0, inplace=False)
              (softmax): Softmax(dim=-1)
            )
            (drop_path): DropPath()
            (norm2): LayerNorm((64,), eps=1e-05, elementwise_affine=True)
            (mlp): Mlp(
              (fc1): Linear(in_features=64, out_features=128, bias=True)
              (act): GELU(approximate='none')
              (fc2): Linear(in_features=128, out_features=64, bias=True)
              (drop): Dropout(p=0.0, inplace=False)
            )
          )
          (4): SwinTransformerBlock(
            dim=64, input_resolution=(64, 64), num_heads=8, window_size=16, shift_size=0, mlp_ratio=2
            (norm1): LayerNorm((64,), eps=1e-05, elementwise_affine=True)
            (attn): WindowAttention(
              dim=64, window_size=(16, 16), num_heads=8
              (qkv): Linear(in_features=64, out_features=192, bias=True)
              (attn_drop): Dropout(p=0.0, inplace=False)
              (proj): Linear(in_features=64, out_features=64, bias=True)
              (proj_drop): Dropout(p=0.0, inplace=False)
              (softmax): Softmax(dim=-1)
            )
            (drop_path): DropPath()
            (norm2): LayerNorm((64,), eps=1e-05, elementwise_affine=True)
            (mlp): Mlp(
              (fc1): Linear(in_features=64, out_features=128, bias=True)
              (act): GELU(approximate='none')
              (fc2): Linear(in_features=128, out_features=64, bias=True)
              (drop): Dropout(p=0.0, inplace=False)
            )
          )
          (5): SwinTransformerBlock(
            dim=64, input_resolution=(64, 64), num_heads=8, window_size=16, shift_size=8, mlp_ratio=2
            (norm1): LayerNorm((64,), eps=1e-05, elementwise_affine=True)
            (attn): WindowAttention(
              dim=64, window_size=(16, 16), num_heads=8
              (qkv): Linear(in_features=64, out_features=192, bias=True)
              (attn_drop): Dropout(p=0.0, inplace=False)
              (proj): Linear(in_features=64, out_features=64, bias=True)
              (proj_drop): Dropout(p=0.0, inplace=False)
              (softmax): Softmax(dim=-1)
            )
            (drop_path): DropPath()
            (norm2): LayerNorm((64,), eps=1e-05, elementwise_affine=True)
            (mlp): Mlp(
              (fc1): Linear(in_features=64, out_features=128, bias=True)
              (act): GELU(approximate='none')
              (fc2): Linear(in_features=128, out_features=64, bias=True)
              (drop): Dropout(p=0.0, inplace=False)
            )
          )
        )
      )
      (conv): SFB(
        (S): ResB(
          (body): Sequential(
            (0): Conv2d(64, 32, kernel_size=(3, 3), stride=(1, 1), padding=(1, 1))
            (1): LeakyReLU(negative_slope=0.2, inplace=True)
            (2): Conv2d(32, 64, kernel_size=(3, 3), stride=(1, 1), padding=(1, 1))
          )
        )
        (F): SpectralTransform(
          (conv1): Sequential(
            (0): Conv2d(64, 32, kernel_size=(1, 1), stride=(1, 1))
            (1): LeakyReLU(negative_slope=0.2, inplace=True)
          )
          (fu): FourierUnit(
            (conv_layer): Conv2d(64, 64, kernel_size=(1, 1), stride=(1, 1))
            (relu): LeakyReLU(negative_slope=0.2, inplace=True)
          )
          (conv2): Conv2d(32, 64, kernel_size=(1, 1), stride=(1, 1))
        )
        (fusion): Conv2d(128, 64, kernel_size=(1, 1), stride=(1, 1))
      )
      (patch_embed): PatchEmbed()
      (patch_unembed): PatchUnEmbed()
    )
  )
  (norm): LayerNorm((64,), eps=1e-05, elementwise_affine=True)
  (conv_after_body): Conv2d(64, 64, kernel_size=(3, 3), stride=(1, 1), padding=(1, 1))
  (upsample): UpsampleOneStep(
    (0): Conv2d(64, 48, kernel_size=(3, 3), stride=(1, 1), padding=(1, 1))
    (1): PixelShuffle(upscale_factor=4)
  )
)
2024-04-25 20:50:10,568 INFO: Use Exponential Moving Average with decay: 0.999
2024-04-25 20:50:10,757 INFO: Network [SwinFIR] is created.
2024-04-25 20:50:10,814 INFO: Loss [CharbonnierLossColor] is created.
2024-04-25 20:50:10,850 INFO: Model [SwinFIRModel] is created.
2024-04-25 20:50:13,980 INFO: Start training from epoch: 0, iter: 0
…
